…
workers=4, random_mesh=False, random_pool=False, sched_factor=0.5, sched_patience=10, seed=2020, static_graph=False, subset_size=7000, train_dataset='./data/trainingset_data_patches.h5', val_freq=2000, valid_dataset='./data/validationset_data_patches.h5')
[2022-05-11 10:58:47,787::train::INFO] Loading datasets
[2022-05-11 10:58:47,789::train::INFO] Building model...
[2022-05-11 10:58:49,691::train::INFO] PointCloudDenoising(
  (model): DenoiseNet(
    (feats): ModuleList(
      (0): FeatureExtraction(
        (transforms): ModuleList(
          (0): FullyConnected(
            (linear): Linear(in_features=3, out_features=32, bias=True)
            (activation): Identity()
          )
          (1): FullyConnected(
            (linear): Linear(in_features=104, out_features=32, bias=True)
            (activation): ReLU()
          )
          (2): FullyConnected(
            (linear): Linear(in_features=104, out_features=32, bias=True)
            (activation): ReLU()
          )
          (3): FullyConnected(
            (linear): Linear(in_features=104, out_features=32, bias=True)
            (activation): ReLU()
          )
        )
        (convs): ModuleList(
          (0): DenseEdgeConv(
            (layer_first): FullyConnected(
              (linear): Linear(in_features=96, out_features=24, bias=True)
              (activation): ReLU()
            )
            (layer_last): FullyConnected(
              (linear): Linear(in_features=80, out_features=24, bias=True)
              (activation): Identity()
            )
            (layers): ModuleList(
              (0): FullyConnected(
                (linear): Linear(in_features=56, out_features=24, bias=True)
                (activation): ReLU()
              )
            )
            (aggr): Aggregator()
          )
          (1): DenseEdgeConv(
            (layer_first): FullyConnected(
              (linear): Linear(in_features=96, out_features=24, bias=True)
              (activation): ReLU()
            )
            (layer_last): FullyConnected(
              (linear): Linear(in_features=80, out_features=24, bias=True)
              (activation): Identity()
            )
            (layers): ModuleList(
              (0): FullyConnected(
                (linear): Linear(in_features=56, out_features=24, bias=True)
                (activation): ReLU()
              )
            )
            (aggr): Aggregator()
          )
          (2): DenseEdgeConv(
            (layer_first): FullyConnected(
              (linear): Linear(in_features=96, out_features=24, bias=True)
              (activation): ReLU()
            )
            (layer_last): FullyConnected(
              (linear): Linear(in_features=80, out_features=24, bias=True)
              (activation): Identity()
            )
            (layers): ModuleList(
              (0): FullyConnected(
                (linear): Linear(in_features=56, out_features=24, bias=True)
                (activation): ReLU()
              )
            )
            (aggr): Aggregator()
          )
          (3): DenseEdgeConv(
            (layer_first): FullyConnected(
              (linear): Linear(in_features=96, out_features=24, bias=True)
              (activation): ReLU()
            )
            (layer_last): FullyConnected(
              (linear): Linear(in_features=80, out_features=24, bias=True)
              (activation): Identity()
            )
            (layers): ModuleList(
              (0): FullyConnected(
                (linear): Linear(in_features=56, out_features=24, bias=True)
                (activation): ReLU()
              )
            )
            (aggr): Aggregator()
          )
        )
      )
      (1): FeatureExtraction(
        (transforms): ModuleList(
          (0): FullyConnected(
            (linear): Linear(in_features=3, out_features=32, bias=True)
            (activation): Identity()
          )
          (1): FullyConnected(
            (linear): Linear(in_features=104, out_features=32, bias=True)
            (activation): ReLU()
          )
          (2): FullyConnected(
            (linear): Linear(in_features=104, out_features=32, bias=True)
            (activation): ReLU()
          )
          (3): FullyConnected(
            (linear): Linear(in_features=104, out_features=32, bias=True)
            (activation): ReLU()
          )
        )
        (convs): ModuleList(
          (0): DenseEdgeConv(
            (layer_first): FullyConnected(
              (linear): Linear(in_features=96, out_features=24, bias=True)
              (activation): ReLU()
            )
            (layer_last): FullyConnected(
              (linear): Linear(in_features=80, out_features=24, bias=True)
              (activation): Identity()
            )
            (layers): ModuleList(
              (0): FullyConnected(
                (linear): Linear(in_features=56, out_features=24, bias=True)
                (activation): ReLU()
              )
            )
            (aggr): Aggregator()
          )
          (1): DenseEdgeConv(
            (layer_first): FullyConnected(
              (linear): Linear(in_features=96, out_features=24, bias=True)
              (activation): ReLU()
            )
            (layer_last): FullyConnected(
              (linear): Linear(in_features=80, out_features=24, bias=True)
              (activation): Identity()
            )
            (layers): ModuleList(
              (0): FullyConnected(
                (linear): Linear(in_features=56, out_features=24, bias=True)
                (activation): ReLU()
              )
            )
            (aggr): Aggregator()
          )
          (2): DenseEdgeConv(
            (layer_first): FullyConnected(
              (linear): Linear(in_features=96, out_features=24, bias=True)
              (activation): ReLU()
            )
            (layer_last): FullyConnected(
              (linear): Linear(in_features=80, out_features=24, bias=True)
              (activation): Identity()
            )
            (layers): ModuleList(
              (0): FullyConnected(
                (linear): Linear(in_features=56, out_features=24, bias=True)
                (activation): ReLU()
              )
            )
            (aggr): Aggregator()
          )
          (3): DenseEdgeConv(
            (layer_first): FullyConnected(
              (linear): Linear(in_features=96, out_features=24, bias=True)
              (activation): ReLU()
            )
            (layer_last): FullyConnected(
              (linear): Linear(in_features=80, out_features=24, bias=True)
              (activation): Identity()
            )
            (layers): ModuleList(
              (0): FullyConnected(
                (linear): Linear(in_features=56, out_features=24, bias=True)
                (activation): ReLU()
              )
            )
            (aggr): Aggregator()
          )
        )
      )
      (2): FeatureExtraction(
        (transforms): ModuleList(
          (0): FullyConnected(
            (linear): Linear(in_features=3, out_features=32, bias=True)
            (activation): Identity()
          )
          (1): FullyConnected(
            (linear): Linear(in_features=104, out_features=32, bias=True)
            (activation): ReLU()
          )
          (2): FullyConnected(
            (linear): Linear(in_features=104, out_features=32, bias=True)
            (activation): ReLU()
          )
          (3): FullyConnected(
            (linear): Linear(in_features=104, out_features=32, bias=True)
            (activation): ReLU()
          )
        )
        (convs): ModuleList(
          (0): DenseEdgeConv(
            (layer_first): FullyConnected(
              (linear): Linear(in_features=96, out_features=24, bias=True)
              (activation): ReLU()
            )
            (layer_last): FullyConnected(
              (linear): Linear(in_features=80, out_features=24, bias=True)
              (activation): Identity()
            )
            (layers): ModuleList(
              (0): FullyConnected(
                (linear): Linear(in_features=56, out_features=24, bias=True)
                (activation): ReLU()
              )
            )
            (aggr): Aggregator()
          )
          (1): DenseEdgeConv(
            (layer_first): FullyConnected(
              (linear): Linear(in_features=96, out_features=24, bias=True)
              (activation): ReLU()
            )
            (layer_last): FullyConnected(
              (linear): Linear(in_features=80, out_features=24, bias=True)
              (activation): Identity()
            )
            (layers): ModuleList(
              (0): FullyConnected(
                (linear): Linear(in_features=56, out_features=24, bias=True)
                (activation): ReLU()
              )
            )
            (aggr): Aggregator()
          )
          (2): DenseEdgeConv(
            (layer_first): FullyConnected(
              (linear): Linear(in_features=96, out_features=24, bias=True)
              (activation): ReLU()
            )
            (layer_last): FullyConnected(
              (linear): Linear(in_features=80, out_features=24, bias=True)
              (activation): Identity()
            )
            (layers): ModuleList(
              (0): FullyConnected(
                (linear): Linear(in_features=56, out_features=24, bias=True)
                (activation): ReLU()
              )
            )
            (aggr): Aggregator()
          )
          (3): DenseEdgeConv(
            (layer_first): FullyConnected(
              (linear): Linear(in_features=96, out_features=24, bias=True)
              (activation): ReLU()
            )
            (layer_last): FullyConnected(
              (linear): Linear(in_features=80, out_features=24, bias=True)
              (activation): Identity()
            )
            (layers): ModuleList(
              (0): FullyConnected(
                (linear): Linear(in_features=56, out_features=24, bias=True)
                (activation): ReLU()
              )
            )
            (aggr): Aggregator()
          )
        )
      )
    )
    (downsample): DownsampleAdjust(
      (pool): GPool(
        (p): Linear(in_features=312, out_features=1, bias=True)
      )
      (mlp): Sequential(
        (0): FullyConnected(
          (linear): Linear(in_features=312, out_features=156, bias=True)
          (activation): ReLU()
        )
        (1): FullyConnected(
          (linear): Linear(in_features=156, out_features=78, bias=True)
          (activation): ReLU()
        )
        (2): FullyConnected(
          (linear): Linear(in_features=78, out_features=3, bias=True)
          (activation): Identity()
        )
      )
    )
    (upsample): Upsampling(
      (folding): Sequential(
        (0): FullyConnected(
          (linear): Linear(in_features=313, out_features=128, bias=True)
          (activation): ReLU()
        )
        (1): FullyConnected(
          (linear): Linear(in_features=128, out_features=128, bias=True)
          (activation): ReLU()
        )
        (2): FullyConnected(
          (linear): Linear(in_features=128, out_features=64, bias=True)
          (activation): ReLU()
        )
        (3): FullyConnected(
          (linear): Linear(in_features=64, out_features=3, bias=True)
          (activation): Identity()
        )
      )
    )
    (loss_ds): ChamferLoss()
    (loss_rec): EMDLoss()
  )
  (cd_loss): ChamferLoss()
  (emd_loss): EMDLoss()
  (P2S): P2SLoss()
)
[2022-05-11 10:58:49,699::train::INFO] Start training...
[2022-05-11 10:58:50,573::train::INFO] [Train] Iter 0001 | Loss 72.097954 | Grad 1973.169800
[2022-05-11 10:58:51,103::train::INFO] [Train] Iter 0002 | Loss 56.508553 | Grad 1524.848999
…
